resnet-mnist/resnet33_new_relu.pth (torch_old, 576614 bytes, 114 tensors)

conv1.0.weight f4 [32, 1, 3]
000000 88 36 ef 3c 3f c0 23 be ba 2e 7f 3e c4 79 5a 3e
       0.029200807 -0.15991305 0.24920169 0.21335512
000010 af 43 a5 be 72 01 57 be 92 da 4c 3e f2 6d d2 3e
       -0.322782 -0.20996645 0.20005253 0.41099507
000020 f0 10 b7 be b5 0e 6a be 80 36 3b bd 19 70 70 3d
       -0.3575511 -0.22857173 -0.045706272 0.058700655
000030 06 f4 e0 bd 24 6b dd 3e 56 6d 44 3e 3b 37 07 3f
       -0.10984044 0.43245804 0.19182333 0.5281865
000040 55 ea ac be bc 2f 5e 3d fc 21 29 bd 2b 70 94 be
       -0.3377253 0.05424474 -0.041292176 -0.28991827
000050 92 57 93 be e5 33 d1 be cc 17 05 3e 4a 18 a8 3e
       -0.28777748 -0.40859905 0.12997359 0.3283103
000060 f9 cd 6f be e0 08 80 bd 5b 05 25 3e 8b ba d4 3d
       -0.23418416 -0.06251693 0.16115324 0.10387143
000070 59 ea b3 3e 1c 87 c4 3e ea 29 36 3e 68 b9 ce be
       0.3513973 0.3838433 0.17789426 -0.4037583
000080 50 54 e4 be 8b 96 e9 3d 53 c1 08 3e 8b d5 0b bf
       -0.44595575 0.11405667 0.13354997 -0.54622716
000090 ef b3 fc 3d 31 4a 88 3d 43 c1 8d bd 89 03 58 3e
       0.12339007 0.06654776 -0.06921627 0.21095099
0000a0 9d ad fb 3e 55 d1 f5 be 19 85 6f ba fa 86 6d 3c
       0.49155894 -0.4801127 -0.00091369596 0.014497513
0000b0 67 72 d3 be bb 57 af 3e 89 9d e9 3e dd 1c db be
       -0.4129822 0.3424662 0.45628002 -0.42795458
0000c0 e9 3d 35 be 7d dd ca bd 24 79 b5 3e 47 e7 11 bf
       -0.17699398 -0.09905527 0.35443985 -0.56993526
0000d0 e5 9f a9 be 11 e0 6d 3e 95 37 c7 3e a8 a9 08 bf
       -0.33129802 0.23230006 0.38909593 -0.53383875
0000e0 40 b1 ca 3e 24 52 a6 3e a1 00 b4 3e 13 42 a3 3e
       0.39588356 0.32484543 0.3515673 0.31886348
0000f0 39 0b fb be 60 78 81 bd b3 a1 b8 3e 40 6f 7b 3e
       -0.49032 -0.06321788 0.36060867 0.24554157
000100 7c b0 d2 bb 8b 26 0b 3f dd bd 3f 3d b4 5c 2f 3e
       -0.00642973 0.54355687 0.046811927 0.17125207
000110 c0 71 d2 bc e5 88 14 bf 1e f2 7f 3e 5f 9a fa 3e
       -0.025689006 -0.58021384 0.24994704 0.489459
000120 af c8 8e 3e df 95 d0 3e ae 5d 09 bf 76 f2 eb 3e
       0.27887484 0.40739343 -0.5365857 0.4608342
000130 c5 87 13 3f d9 6e 4e be c3 43 a2 bd 97 8b 04 be
       0.5762904 -0.20159473 -0.07923081 -0.12943874
000140 d4 14 9e 3a 92 c7 41 3e 99 ea f8 be 21 bd d6 be
       0.0012060651 0.18923786 -0.48616484 -0.4194117
000150 13 89 9e be bd ef f3 3e 40 cc de 3d 4d 01 0e bf
       -0.30963954 0.47643843 0.10878801 -0.55470735
000160 2c d9 97 3d ff 16 b6 be ad 91 7b 3c 73 03 ba 3e
       0.07414469 -0.3556442 0.015354556 0.36330757
000170 83 b2 e2 3c 61 af 8f be b5 ea f2 be c5 34 f0 be
       0.027673012 -0.2806349 -0.47444692 -0.4691526

conv1.0.bias f4 [32]
000000 5c 0b 80 be d1 3b 0c bf d0 54 d4 3e 9c e0 5d 3e
       -0.25008667 -0.5477877 0.41470957 0.21667713
000010 b2 d2 12 bf a8 03 45 3c bf 6c 0f bf 3c 3d ae 3e
       -0.57352746 0.0120247975 -0.5602531 0.34031093
000020 32 0b 07 be c1 4d 3e bd f6 a0 b3 3e 08 2c e7 3d
       -0.13187864 -0.04646087 0.3508374 0.11287695
000030 af d1 43 be 98 de fb be 80 2f 6b bd 08 aa cd 3e
       -0.19122957 -0.49193263 -0.057418346 0.40168786
000040 ce cb 5f be b4 4d 10 3e 38 57 63 be 38 8b a2 3d
       -0.21855089 0.14092141 -0.2220124 0.0793671
000050 41 03 ff 3c b1 57 24 bd 8a 63 0e 3f 5c 5c 3a 3e
       0.031129481 -0.04012269 0.55620635 0.18199295
000060 37 2c 81 be 99 76 ac be 12 45 65 3c 89 96 fc be
       -0.25229046 -0.33684233 0.013993518 -0.493336
000070 58 f3 df 3d c0 5f c8 be d4 16 51 3e 08 2d f6 3e
       0.10935086 -0.3913555 0.20418864 0.4808123

conv1.1.weight f4 [32]
000000 1f 9a 7f 3f c6 61 80 3f 3d d2 7f 3f a0 99 80 3f
       0.99844545 1.0029838 0.99930173 1.0046883
000010 31 15 7f 3f 67 50 7f 3f ab 13 81 3f 21 2a 82 3f
       0.9964171 0.9973206 1.0084127 1.0169107
000020 ec d3 81 3f 2f 8a 80 3f f9 aa 80 3f 55 80 81 3f
       1.0142798 1.004217 1.0052177 1.0117289
000030 77 52 7f 3f c6 1c 81 3f 4b 0f 81 3f dd bf 80 3f
       0.99735206 1.0086906 1.0082792 1.0058552
000040 2b 6e 80 3f d7 26 81 3f 90 2e 7a 3f ba a5 7d 3f
       1.003362 1.0089978 0.977273 0.99081004
000050 62 3f 7f 3f 83 1f 80 3f 75 e8 7e 3f 2c fb 7f 3f
       0.9970609 1.0009617 0.9957345 0.9999263
000060 39 17 7f 3f 78 d5 7d 3f 76 88 7f 3f 29 97 81 3f
       0.9964481 0.9915385 0.998176 1.0124255
000070 7a cf 7a 3f d3 c4 80 3f 44 b1 7e 3f 93 20 7f 3f
       0.97972834 1.0060066 0.99489236 0.9965908

conv1.1.bias f4 [32]
000000 6b 82 a8 3b 22 c7 51 3b c4 84 94 3b 91 28 4c 3a
       0.0051425 0.0032009562 0.0045324285 0.0007788027
000010 09 6f 3e bb 80 50 36 3b 3a 57 84 3c f0 bf be 3b
       -0.0029057881 0.0027818978 0.016154874 0.0058212206
000020 2d 1d 41 3c a3 4c 81 3c 00 69 2c 3c d1 bb 4e 3c
       0.011786741 0.015783614 0.010523081 0.012618021
000030 a0 49 05 3c b9 15 0c 3a 45 6f 31 3c 9d 11 d1 bb
       0.008135229 0.0005343813 0.010829751 -0.0063802735
000040 c3 68 56 3b 98 f5 16 3c 7d 65 ed ba 98 df 32 bc
       0.0032716251 0.009213828 -0.0018111911 -0.010917567
000050 d4 e3 15 bc 6f a9 43 bc f2 ee 1c 3c 88 6e e4 3b
       -0.009148557 -0.011942252 0.009578453 0.006971184
000060 ee e3 f8 ba 64 04 65 3a 3b 90 06 bb f2 c8 a3 3c
       -0.0018988827 0.0008736311 -0.0020532745 0.01999328
000070 3a 75 1c bc 21 ac b0 3b 44 11 bb bb c3 80 b4 bb
       -0.009549433 0.005391613 -0.0057088453 -0.0055085137

conv1.1.running_mean f4 [32]
000000 45 33 73 be 82 cd 14 bf 5c 07 e2 3e 61 c2 46 3e
       -0.23750027 -0.5812608 0.4414624 0.19410087
000010 48 00 05 bf f6 e0 1a 3d bf 0e 20 bf 4b d0 b0 3e
       -0.51953554 0.037812196 -0.625225 0.34533915
000020 24 97 15 be 59 69 2a 3d 94 86 8f 3e 14 33 a7 3d
       -0.14608437 0.041604374 0.28032362 0.08164039
000030 b6 d9 36 be c6 ea ef be 16 95 cb bd df 88 e1 3e
       -0.17856488 -0.46858805 -0.09940545 0.44049737
000040 4e ae 57 be eb d2 90 3d 74 4f 48 be ea 3d 3c 3e
       -0.21062586 0.070714794 -0.19561559 0.18382993
000050 a8 e9 30 3c 43 44 2c 3d 4b 90 13 3f ea 5d 4b 3e
       0.0107978955 0.042057287 0.5764205 0.19860044
000060 d8 40 72 be da 22 7f be 79 e7 ff bb 24 89 11 bf
       -0.23657548 -0.24915639 -0.007809576 -0.56849885
000070 5b 99 0d 3e c3 4f f5 be 47 ba 7c 3e 19 63 b4 3e
       0.13828032 -0.47912416 0.24680434 0.35231856

conv1.1.running_var f4 [32]
000000 f9 7f f4 3a f5 3b 38 3c 6f 47 44 3c 07 11 90 3b
       0.0018653861 0.011244764 0.011979922 0.004396561
000010 27 ad af 3c e6 41 07 3c 76 d2 db 3c 31 81 22 3c
       0.02144487 0.0082554575 0.026833754 0.009918497
000020 3d 71 82 3b 84 31 45 3d e1 d9 1c 3d 45 92 55 3c
       0.003980784 0.048142925 0.038293723 0.013035362
000030 80 be d8 3a 70 be 71 3c 2c bc 51 3c a3 49 b6 3c
       0.0016536266 0.0147548765 0.012801211 0.02225191
000040 fc 2a b0 3b ce 77 2a 3d 6c 4a c1 3b 10 bb 84 3d
       0.005376218 0.04161816 0.0058987644 0.06480992
000050 73 b8 78 3c 11 e7 20 3d 42 48 3f 3b da 40 b9 3c
       0.015180695 0.039282862 0.0029187356 0.022613931
000060 05 df 79 3c ff 0a 6c 3d ef ad 4d 3b 67 69 30 3d
       0.015250926 0.057627674 0.003138419 0.04306927
000070 cd 5e 35 3c 60 ab 31 3d 9c 48 4e 3c 97 ab cb 3d
       0.011069966 0.043376327 0.012590554 0.099448375

conv2.0.weight f4 [32, 32, 3]
000000 df 5d a4 3d 5b 1d 96 3c e4 92 99 3d b4 af af bb
       0.08025717 0.018324545 0.0749872 -0.0053615216
000010 c2 f8 8b 3d f3 0e c2 bd cd ec fd 3b 37 f8 4d 3c
       0.06834556 -0.094755076 0.007749176 0.012571386
000020 9c f8 e6 bc 30 55 af bd 1f b1 c7 3d 47 51 71 bd
       -0.028194718 -0.0856117 0.0975058 -0.058915403
000030 58 1d aa bd e8 a5 9e bd 37 f3 87 bd c7 22 29 bd
       -0.08306378 -0.07746488 -0.066381864 -0.041292932
000040 67 18 67 3d 21 f3 61 3d 75 a0 1d 3d a2 51 37 3d
       0.056419756 0.055163506 0.038483102 0.044755585
000050 4a 8b a1 3d f4 d6 ad 3d 27 a7 7d bd 99 52 4c 3d
       0.078878954 0.08488265 -0.061926987 0.04988346
000060 a5 8f 27 3d d1 a3 b5 3d 89 33 28 bd c4 18 bf 3c
       0.040908474 0.08869136 -0.041064773 0.023327239
000070 f3 28 81 bd 3d 43 91 bd 05 d2 82 3c c1 36 31 3d
       -0.063066386 -0.07092903 0.015969286 0.043265108
000080 55 37 09 bb 40 8e 77 bd 7d d7 a4 bd c4 7b 0b 3b
       -0.0020937521 -0.060438395 -0.08048914 0.0021283487
000090 60 dd 67 3c ea ed 8e 3d 4e d5 b3 3d 39 29 ca bd
       0.014151901 0.06978972 0.08780919 -0.09871144
0000a0 78 d9 c7 3c a6 a7 c1 3d 30 ee 52 3d e4 84 52 3b
       0.02439569 0.094558045 0.051496685 0.0032122666
0000b0 5e 31 b5 3d 7e fc cf bc 20 da 80 3d 13 f6 ce 3d
       0.08847307 -0.025388952 0.06291604 0.10105529
0000c0 87 03 b8 3d 3a c4 a5 3d 10 09 1b 3d b6 ce 81 3c
       0.08985048 0.08094068 0.03785044 0.015845638
0000d0 24 9a b7 3d 62 6b cf 3d 59 9f 71 3d ba 8a 2b bd
       0.08964947 0.101279035 0.058989856 -0.041880347
0000e0 76 8c 47 bd a9 df 96 3b fd a7 b1 bd c3 51 55 3d
       -0.04871794 0.004604299 -0.08674619 0.052079927
0000f0 39 b1 06 3c ef 90 58 3d 13 bf 3e bd 36 90 c6 bb
       0.008220964 0.052872594 -0.04656894 -0.0060596718
000100 39 0d b1 3d cb 4e 36 bc d7 4a 5f bd 5c 57 b8 3d
       0.086451 -0.011127184 -0.054514732 0.090010375
000110 85 0e 9f bc b9 dd 3a bb 29 fd 9f 3d fd 97 ac bd
       -0.019416103 -0.0028513505 0.07811958 -0.08427427
000120 d1 7e 07 3d 72 65 5d bd 55 81 8f 3a 21 6b c9 bd
       0.033079926 -0.054051824 0.0010948578 -0.09834886
000130 79 da 9c 3d e1 38 90 3d 69 e4 b5 3d ca 12 e9 3c
       0.07658858 0.07042099 0.088814564 0.028451342
000140 54 d1 8e 3d 41 3d dd 3d b2 35 57 bc 15 d6 c7 3d
       0.0697352 0.10802699 -0.013135361 0.0975763
000150 f0 31 e5 3b 56 9b 9e bc aa 1b c2 3d 22 9e 05 3d
       0.0069944784 -0.01936118 0.09477933 0.03262151
000160 45 63 4f 3b f1 14 bd bd 7f 97 84 3b af ad aa bd
       0.0031644863 -0.0923251 0.00404638 -0.08333909
000170 a5 04 72 bd 29 39 26 bd a3 50 c7 bd b5 54 77 bd
       -0.05908646 -0.040581856 -0.09732177 -0.060383517
000180 85 b9 91 bd 3e e0 ba 3d 41 4a 27 3d 03 77 cc 3c
       -0.07115463 0.09124802 0.0408423 0.024959093
000190 e4 4f 89 3b 8f 04 94 bd 72 54 03 bd 85 76 99 3c
       0.004190432 -0.07227432 -0.032062955 0.018733272
0001a0 bd c0 01 3d 81 f0 ce 3d e3 78 9e 3d f2 dc b8 3c
       0.03167795 0.10104466 0.07737901 0.022566292
0001b0 5a 92 f0 bc d0 b1 8b bb 97 77 c4 bd ec 95 d0 3b
       -0.02936666 -0.0042631403 -0.095931225 0.0063655283
0001c0 b8 8d 40 bd 09 df 47 bd 76 e1 97 bd b2 68 15 3d
       -0.047010154 -0.048796687 -0.0741605 0.0364768
0001d0 2b 7b f0 bb c4 a5 75 3d 6b 0d 02 bd cf 9f 17 3b
       -0.0073389015 0.05997254 -0.031751078 0.0023136025
0001e0 bd db b5 bd d9 b2 1d bb 0c a4 8f bd 22 7a 59 bd
       -0.088798024 -0.00240629 -0.07013711 -0.05309499
0001f0 a8 95 30 3d e7 ae 89 bd 16 2a c1 3d 7b 30 b0 bd
       0.043111473 -0.06722813 0.094318554 -0.08602997
000200 f3 f3 8d 3c e0 d9 bb 3d 32 16 d2 3b 5e f7 2d 3d
       0.017328238 0.09172416 0.0064113373 0.042472236
000210 3a eb da 3b 18 f5 45 bd fa 74 d0 bd fa c4 22 bd
       0.006680873 -0.048329443 -0.101785615 -0.039738633
000220 e3 2b 02 3d 08 88 3f 3d 18 00 2b bd 36 19 fc bc
       0.031780135 0.04676059 -0.041748136 -0.03077374
000230 bd ec 9b 3d 1d 88 88 bd 48 b5 62 3d d9 f0 9c bd
       0.076135136 -0.066665865 0.055348665 -0.076631255
000240 81 b9 bd 3b d1 52 ad 3d a0 80 2c bd b7 91 83 bc
       0.005789936 0.084630616 -0.042114854 -0.016060693
000250 a7 05 15 3c 06 e2 bc 3d 09 ef f6 3c 69 c8 ad 3b
       0.009095586 0.09222798 0.030143278 0.005303432
000260 32 90 35 bd 2c 3d a2 3d 7a ed be bd 43 9a 98 3d
       -0.04432697 0.07921824 -0.09322639 0.07451298
000270 cb 0a 8d bd b9 22 c2 3d 5b 8d ae bd 65 30 2c bc
       -0.06886824 0.09479279 -0.08523055 -0.010509585
000280 25 1b 6d 3d c8 8c 4d bd bf 12 b6 bd c9 28 37 bd
       0.057887215 -0.050183088 -0.08890294 -0.04471663
000290 18 00 cd bd 25 e2 40 3d b2 fc 85 bd d6 cb c3 bd
       -0.100097835 0.04709067 -0.065423384 -0.09560363
0002a0 0d b7 92 bd e5 61 31 3d 80 44 c9 bd bc 53 9f bd
       -0.071638204 0.04330625 -0.098275185 -0.07779643
0002b0 2f b0 95 bd ab 1a 12 bd 80 d7 14 bd 76 79 c2 3c
       -0.07308995 -0.035669964 -0.03633833 0.023739558
0002c0 a3 8f a8 3d 79 31 8a 3d 23 cb 03 bb 96 d4 57 bd
       0.082305215 0.067477174 -0.0020110093 -0.052692972
0002d0 c9 a9 9d 3d ad 5e a1 bc 4a b2 d1 bd 11 94 b4 3d
       0.076983996 -0.019698465 -0.10239084 0.08817304
0002e0 d0 93 4e 3d 53 b1 90 3d ba dd 2d bd e6 dc 00 3d
       0.050433934 0.07065072 -0.042447783 0.031460665
0002f0 0e fb 48 3d 7e 08 95 bd c1 9c 7d bd a8 5c 10 bd
       0.04906755 -0.072770104 -0.06191707 -0.035244614
000300 c9 d4 f6 bc 45 88 ef 3c 1d b2 97 3d 5d fd 8f bd
       -0.03013076 0.029239783 0.07407019 -0.07030747
000310 8b 79 c7 3c 61 a0 69 3b 5c 32 c0 3d 5c 63 6b 3d
       0.024349948 0.0035648572 0.09384605 0.057467803
000320 49 40 10 bc 9b cd 80 3c bc 7c 0c 3d 84 f1 bf bc
       -0.008804389 0.01572304 0.034298643 -0.023430593
000330 e4 02 c7 3d a3 9a de 3c d9 bb a6 bc ad d9 17 3d
       0.09717348 0.027173346 -0.020353245 0.037072826
000340 c9 a6 84 bc e4 d2 32 3c 70 cb 47 3d 91 df 57 bc
       -0.01619281 0.010914538 0.048777997 -0.013175861
000350 33 61 c9 bd 66 d1 ba 3d a1 d1 d2 bd 4d 86 75 3d
       -0.098329924 0.09121971 -0.1029389 0.059942532
000360 e2 07 af bb 76 bd f3 bc 5e 78 cb bd 4a c6 b0 3d
       -0.005341516 -0.029753428 -0.099350676 0.08631571
000370 14 24 2f 3d e0 a5 4b 3d 99 9f c6 bd 03 9b 23 3c
       0.042759016 0.049718738 -0.096984096 0.009985688
000380 ee 33 a6 bd 30 43 9a bc a9 b2 34 bd 24 3c d7 3b
       -0.081153736 -0.018830866 -0.044115696 0.0065684486
000390 91 a3 9e bd 26 31 0b bd fc 12 98 3d d8 80 fa bb
       -0.077460416 -0.03398242 0.07425496 -0.007644754
0003a0 95 c5 a5 bd 0f 7c a0 bd 2c 1c 9b bb 0c e5 8d 3d
       -0.080943264 -0.07836162 -0.004733583 0.06928453
0003b0 88 da cc 3a 8b 63 89 3c 5a c4 b9 bd 1d 8e de bd
       0.0015629092 0.016771099 -0.09070654 -0.1086695
0003c0 a4 ef 31 3d b7 ff b7 bd 06 67 6a 3d ed b7 0f 3d
       0.04344143 -0.089843206 0.057227157 0.035087515
0003d0 18 f7 cb 3c 1d 83 00 3d 1b 93 fa 3c 16 28 3a 3d
       0.024898097 0.03137504 0.030587723 0.045448385
0003e0 65 8a 44 bc b8 81 25 bd 0f ad ea 3c 42 d4 57 3d
       -0.011995886 -0.040406913 0.028646974 0.05269266
0003f0 f5 e1 74 bd 42 df 18 3d 46 43 b2 3c 23 11 98 bd
       -0.059785802 0.03732229 0.021760594 -0.074251436

conv2.0.bias f4 [32]
000000 a8 5d de bc 86 cf 34 bd 8c 76 97 3d 4b 6b b9 bd
       -0.027144268 -0.044143222 0.07395658 -0.09053668
000010 3c 2f 96 3d ec 42 46 bd dc 00 55 bb aa f4 81 3d
       0.07333228 -0.048403665 -0.0032501733 0.06345494
000020 98 03 d8 3c 06 30 b7 3d fa 39 b5 3d 58 95 72 3c
       0.026368901 0.089447066 0.08848949 0.014806114
000030 50 71 0a 3d c0 43 d2 3c e9 43 9d bd 43 88 3c bd
       0.03379947 0.025667071 -0.076789685 -0.046028387
000040 b8 fa a4 3c e8 48 d0 bc 91 2b 33 bd 5c 5f 31 3d
       0.020139083 -0.02542539 -0.04374272 0.043303832
000050 00 b2 91 3d 80 e8 2d bb 68 ff 77 3c cc c1 2d 3d
       0.07114029 -0.0026536286 0.015136577 0.042421147
000060 36 10 c9 3d 60 3e ef bc 44 11 8e 3d e2 b3 c0 bd
       0.09817545 -0.029204547 0.06936887 -0.0940931
000070 84 8b 7f 3d 41 84 4d bc a8 0c 15 bd 98 1d e7 bc
       0.06238891 -0.012543739 -0.036389023 -0.028212354

conv2.1.weight f4 [32]
000000 66 ac 81 3f 16 87 80 3f 9d 89 80 3f af 54 7e 3f
       1.0130737 1.0041225 1.0041996 0.99347967
000010 d9 05 81 3f 6c ab 7f 3f 00 ce 80 3f 65 3c 7f 3f
       1.007991 0.99870944 1.0062866 0.9970153
000020 dd 9a 7e 3f 8f d0 7d 3f e4 98 7f 3f 32 4e 80 3f
       0.9945505 0.9914636 0.9984267 1.0023863
000030 06 a7 7d 3f 15 85 80 3f 55 06 80 3f 8e 08 7f 3f
       0.9908298 1.0040613 1.0001932 0.9962243
000040 1a 4f 7f 3f 4c 4a 80 3f 6b 5e 7f 3f 80 40 7f 3f
       0.99730074 1.0022674 0.99753445 0.99707794
000050 63 f1 7f 3f fd 5e 7f 3f 16 44 80 3f d9 83 80 3f
       0.999777 0.99754316 1.0020778 1.0040237
000060 18 4e 80 3f d3 f0 7f 3f 98 ba 7d 3f 21 68 7f 3f
       1.0023832 0.99976844 0.99112844 0.99768263
000070 60 9d 80 3f 2b 72 80 3f 45 34 80 3f 3f a1 7f 3f
       1.0048027 1.0034841 1.0015951 0.99855417

conv2.1.bias f4 [32]
000000 8f 49 91 bb 62 bb fa 3b 84 68 7e 3c c1 25 6b 3b
       -0.0044338177 0.0076517323 0.015527848 0.0035880657
000010 09 19 56 bb 12 b2 b6 bb ea 30 66 3c ce e3 45 3b
       -0.003266873 -0.005575427 0.014049748 0.0030195597
000020 fe 2d 86 3b 16 2a cd ba f6 19 5d ba 41 a0 e4 3b
       0.004094838 -0.0015652801 -0.00084343494 0.0069771116
000030 96 dc 6a bb 63 7c d1 3b 58 53 82 3a 6f 6a 96 3b
       -0.0035837046 0.006393002 0.0009943051 0.0045903246
000040 77 a2 79 3b 54 a2 9d 3b c2 a1 b7 39 bb bb f9 3b
       0.0038091221 0.004810611 0.00035025 0.007621256
000050 cb ed 1f 3b e1 18 44 bb bb 4b 63 bb d3 2a 1e bb
       0.002440321 -0.0029922056 -0.003468259 -0.0024134412
000060 54 e5 08 bb 93 51 74 3b f7 6a f7 38 e8 d9 71 3b
       -0.0020888643 0.0037280067 0.000117978016 0.0036903564
000070 35 de cb b9 cc e9 f7 3b 8c 32 0c 3a 9b 74 1d 3c
       -0.00038884734 0.0075657126 0.0005348108 0.00961032

conv2.1.running_mean f4 [32]
000000 f9 88 8d 3e ee 6e 6c be 18 11 83 be d2 71 17 3e
       0.27643564 -0.23089191 -0.2559898 0.14789513
000010 c3 cc ad 3e 3b 3f 79 3e 63 c7 ae bd 27 be 4e be
       0.33945283 0.24340527 -0.08534124 -0.20189725
000020 3f ad dd 39 64 ea 97 3e 24 ab 88 be 9f af 0a bc
       0.00042281483 0.29671013 -0.2669307 -0.008464723
000030 94 8f 1c bc 6d 80 c2 3d 3f c3 dd be 7d a7 25 3d
       -0.009555716 0.094971515 -0.43313023 0.040442932
000040 2a 61 c6 3d 3a 72 19 3d 57 a6 ae be 91 47 b6 bc
       0.09686501 0.03746245 -0.34111282 -0.022250922
000050 f4 60 be be 6d ad bf be 57 46 91 bd 4c 69 86 3e
       -0.37183344 -0.37437 -0.070934944 0.2625221
000060 64 d7 e9 3e 67 cd 91 be 85 aa e0 bd a1 80 9d be
       0.45672143 -0.28477022 -0.10970024 -0.307622
000070 e6 7c de 3e 11 ff 23 be f2 d8 c8 3d 24 5f 30 be
       0.43454665 -0.16015269 0.09807004 -0.17223793

conv2.1.running_var f4 [32]
000000 39 0f 16 3e 03 b2 e9 3e ae d4 9b 3d ce 8f a3 3e
       0.14654244 0.45643625 0.07608925 0.31945652
000010 89 15 2f 3e a8 31 64 3e 49 7e 10 3e 30 45 80 3e
       0.17098059 0.22284567 0.14110674 0.25052786
000020 ad 6f 9a 3e 86 3c 86 3e 62 45 76 3e ee d0 82 3d
       0.30163327 0.2621805 0.24049905 0.063875064
000030 3c a9 35 3e 7b cb c7 3e 88 2f 70 3e b5 9e 12 3e
       0.17740339 0.3902243 0.23455632 0.14318354
000040 e6 aa 85 3e d3 7e fb 3d 1b c0 0d 3f 62 73 dc 3d
       0.26106948 0.12280049 0.55371255 0.10764195
000050 5b 91 39 3f 5b f9 12 3f 0a 20 e3 3d 1d 3f 28 3e
       0.7248742 0.57411736 0.11090095 0.16430326
000060 d5 3e 8b 3e 1a c1 07 3e ef a9 5f 3e 40 82 22 3e
       0.27196375 0.13257256 0.21842168 0.15869999
000070 ce 80 af 3d 38 d2 17 3e e4 e8 51 3e 9e 1d 62 3e
       0.085694894 0.14826286 0.20498997 0.2208161

conv3.0.weight f4 [32, 32, 3]
000000 03 16 42 bd ff 57 c3 3d cb 96 63 3d d7 95 2b 3d
       -0.047384273 0.09538268 0.05556373 0.041890945
000010 af 69 90 3c 42 cf 84 3b ad 81 5a bd e8 33 ea bc
       0.017628519 0.0040530274 -0.053346325 -0.028589204
000020 d8 a7 92 3c 6b 93 d8 3c e1 25 40 bd 4a a0 0f 3d
       0.0179023 0.026437482 -0.046911124 0.035064973
000030 73 48 0c bb d2 e4 30 3d 4c 1e 7f bd 2c 3e 78 3d
       -0.0021405488 0.04318697 -0.062284753 0.060606167
000040 3f 94 82 bd a1 14 d6 ba 15 e7 9f 3d 53 68 9f bd
       -0.06375932 -0.0016333052 0.07807747 -0.0778357
000050 c6 c7 d7 3d db e1 cc bd 7a f0 ce 3c ad df 10 3d
       0.10536151 -0.10004016 0.025261153 0.035369564
000060 ae 6e 4d 3d 82 1c 4a 3d 94 a7 d6 bd 1b 17 73 bd
       0.05015438 0.049343593 -0.10481182 -0.059348207
000070 38 91 73 bd 10 7e 3f 3b d6 ea 08 bd 1a ef af 3d
       -0.059464663 0.0029219426 -0.033427082 0.08590527
000080 df e7 9f bd 17 0e e1 3c 1f 61 8b 3a bb 4f 46 3d
       -0.07807898 0.027472539 0.0010633803 0.04841588
000090 f5 5b 6c 3d db 91 25 3c 47 1d 21 bc 73 45 9a 3b
       0.057704885 0.010105575 -0.00983364 0.004707986
0000a0 73 3b 88 bd 5a fa a3 bd b8 0c 9f bd e5 e8 a9 bd
       -0.06651964 -0.08006735 -0.07766098 -0.08296374
0000b0 ca 80 68 bd 51 51 4b 3c b5 a1 8a 3d 04 02 b3 3b
       -0.056763448 0.012409524 0.067691244 0.0054628868
0000c0 27 d3 92 bd 77 bb e8 bd 11 fe b8 3d ea 59 75 3d
       -0.0716918 -0.11363881 0.09032834 0.0599002
0000d0 dd 1f dd 3d e5 7d bb bd 89 44 9b 3d 99 f7 a9 3c
       0.10797093 -0.09154872 0.075814314 0.020747947
0000e0 8f 2f c4 bc 19 18 c1 3c bc 08 cc bb bc 7a 5d bc
       -0.023948459 0.023571061 -0.006226627 -0.013518032
0000f0 56 fb 2a 3b 0b ae 88 3d 18 4c f3 3c 66 43 34 3c
       0.002608975 0.06673821 0.02969937 0.011002397
000100 9d 63 e0 bc 48 5a 80 3d d2 f1 7e bc e0 13 0b 3d
       -0.02739125 0.0626722 -0.015560584 0.0339545
000110 ad ce 9c 3d f5 9a ef bb 8f 06 51 3d 90 08 b2 bd
       0.07656608 -0.0073121735 0.051031645 -0.086930394
000120 02 d8 b4 bd eb 19 ff 3c 12 c5 18 bd 1e 68 ae 3d
       -0.08830263 0.031140288 -0.037297316 0.085159525
000130 0c 2f 2f 3d 28 78 95 3d 3a 5d 01 3b 7c d8 9d bc
       0.042769477 0.072983086 0.0019739405 -0.019268267
000140 76 0e 62 3d 2a cc af bc 30 fd 9a bd a0 d1 68 bd
       0.055189572 -0.021459658 -0.07567823 -0.05684054
000150 b4 10 84 3d b1 9d 52 bd e9 ee 54 3c 75 c2 8d bc
       0.06448498 -0.051419917 0.012996414 -0.017304638
000160 43 b7 ab bd ce cc 21 3d 9d 36 c6 3d c7 50 1b 3d
       -0.08384564 0.039501958 0.096783854 0.037918832
000170 db 47 85 bb d2 32 a7 3d 26 8c b7 bd 51 ce 3f 3d
       -0.0040674037 0.0816399 -0.08962278 0.046827618
000180 75 bc 2a bd db fb cf bd 55 8b 50 bd e3 de ea 3c
       -0.041683633 -0.101554595 -0.050914127 0.028670734
000190 db 7d 7f 3d 2b 5d 24 3d 77 36 71 3d 26 cb 26 3d
       0.062375885 0.040127914 0.058889832 0.04072108
0001a0 2a f4 8c 3d 36 ae c5 39 35 56 bf 3d ff 6a 35 3d
       0.06882508 0.00037704565 0.093426146 0.044291493
0001b0 bc 9a cf bd 5b c8 4d 3d 57 75 a2 bd 46 fc 46 bd
       -0.10136935 0.050239902 -0.07932537 -0.04858043
0001c0 c7 c8 ba bd c0 f4 84 3c 0f ae b8 3d c7 c0 97 3d
       -0.091203265 0.016229987 0.09017574 0.07409816
0001d0 f9 93 8e 3d e3 93 1e 3d e8 b1 8f bd ac 2c 87 bd
       0.06961817 0.038715255 -0.07016355 -0.06600317
0001e0 01 37 bb 3c 75 58 aa 3d 02 9e b8 3c 19 3e d3 3d
       0.022853376 0.08317653 0.022536281 0.103145786
0001f0 71 a8 a6 bd 75 73 a0 3d 10 7d 55 bd 17 cf 1f bd
       -0.081375964 0.07834522 -0.052121222 -0.039015856
000200 14 2d 63 3d b7 25 bf bb bb b0 9a bd 46 c4 b0 bd
       0.05546291 -0.0058333534 -0.0755324 -0.08631186
000210 77 82 d5 bc e3 61 c2 3c 2d 63 58 bd 4c 62 a1 bc
       -0.026063187 0.023728317 -0.052828956 -0.019700192
000220 2b 6c 8f bd 3b 53 24 3d e0 53 ba 3d 06 d1 b0 bd
       -0.07003053 0.040118437 0.09098029 -0.08633618
000230 16 0b 01 3c 24 b5 ae bd ec 2d 14 bb 53 e1 1d 3d
       0.007876178 -0.085306436 -0.002261038 0.038544964
000240 6c d9 c5 bd b4 d1 b4 bd 8d 29 a2 bd 1c d9 c0 bd
       -0.096606106 -0.0882906 -0.079180814 -0.0941641
000250 2a 53 cf bd 64 aa 45 bd d1 4c 7f 3d 7f e4 90 3d
       -0.10123284 -0.0482582 0.062329117 0.07074832
000260 54 d2 99 bc f0 36 47 3d 48 80 86 bd 61 ca c4 3d
       -0.01877705 0.048636377 -0.065674365 0.09608913
000270 c9 50 9d 3d 92 d3 54 bd 4f 59 a4 3d 0f d0 f6 bc
       0.07681424 -0.05195958 0.08024847 -0.030128507
000280 11 2f ac bb be 87 02 bd f3 b6 c3 bc 43 91 9d bd
       -0.005254634 -0.031867735 -0.023890948 -0.07693722
000290 28 9a 64 3d a7 96 d1 bc 50 90 c2 bd 68 9b 77 bd
       0.055811077 -0.025584532 -0.09500182 -0.06045094
0002a0 71 cf 3e 3d ca 28 07 3d 7b af 0f 3d dd 24 a8 bd
       0.04658455 0.032997884 0.03507946 -0.08210156
0002b0 ca e1 8f bd de 2f 01 bd db 58 ab bd 09 78 99 3d
       -0.07025488 -0.03153979 -0.08366557 0.07493598
0002c0 c9 80 f5 3b 23 58 65 3d 44 b3 ab bd bc 29 e9 3d
       0.007492159 0.055992257 -0.083838016 0.11384913
0002d0 df 65 a1 bd 30 43 a2 3d 34 9c c6 3d c4 7f 0d bd
       -0.078807585 0.07922971 0.09697762 -0.034545675
0002e0 67 e9 5d bd e3 a6 1b bd 23 3e 8f bd c6 44 f8 bc
       -0.054177668 -0.038000952 -0.069942735 -0.030306231
0002f0 7b 01 29 3c ea 86 44 3d e0 8b ad bd b2 17 c2 3c
       0.010315294 0.047980227 -0.08473945 0.02369294
000300 43 9e be bc 46 0a 97 bd 68 df b4 39 ee 8c 69 bd
       -0.023268824 -0.073750064 0.00034498726 -0.057019167
000310 a4 39 b9 3c 69 1b 13 3d d5 e1 13 bd f7 24 f4 bd
       0.022610493 0.035914812 -0.036104042 -0.11921113
000320 2b f7 8c bd 3c 04 4e bd 93 78 35 bd 33 00 87 3d
       -0.06883081 -0.050297007 -0.04430444 0.06591835
000330 8a 9d b1 3c e9 19 28 3b a9 10 ee bc 9e ae b8 bd
       0.021681566 0.002565021 -0.029060679 -0.090176806
000340 49 17 a4 3d 45 a3 e7 bb 10 09 91 3c ea 8a 58 bc
       0.08012254 -0.007069024 0.017704517 -0.013216713
000350 81 69 71 bc 8e e5 5d bc 6a f2 dd 3c b3 f6 7d 3c
       -0.014734627 -0.0135435 0.027093131 0.015500712
000360 f7 2f 29 bd 6b 48 d3 3c e5 72 93 3d ca 5c a3 bc
       -0.04130551 0.025791368 0.07199649 -0.019941706
000370 06 c9 d4 bd 0b 23 50 3d 09 8c b0 bd b1 51 08 bd
       -0.10389905 0.05081467 -0.086204596 -0.033281032
000380 46 f6 04 bd 04 59 11 3d 47 83 ad 3d 32 78 84 bd
       -0.032461427 0.035485283 0.08472305 -0.06468238
000390 77 10 ae 3d 6e 07 b1 3d 59 aa a0 bd b9 65 8d bd
       0.08499234 0.08643995 -0.07844991 -0.06904168
0003a0 09 9d e8 bd 20 47 d1 bd ff 9a 8b 3d cf c2 87 3d
       -0.11358077 -0.10218644 0.068166725 0.06628954
0003b0 67 41 6b bc b8 75 95 bc 37 91 2a 3d 12 60 10 bc
       -0.014358855 -0.01824461 0.041642394 -0.008811967
0003c0 d7 4d 9a 3d 8a e2 f9 bd 5f fc f1 bd 7c 3d 5c bd
       0.07534378 -0.12201412 -0.11815714 -0.053769574
0003d0 84 d9 7c 3d 57 bc 35 bd 3d cc 6c 3d 3e b9 d7 bc
       0.061730877 -0.044369068 0.057811964 -0.026333448
0003e0 d8 d8 53 bc a2 c0 a2 3d 93 1b 49 bd ea e5 7f bd
       -0.012930118 0.07946898 -0.049098562 -0.062475123
0003f0 69 ca 8a 3d 8d 88 9e bd 9c 22 d0 3d 5c 33 ce 3d
       0.06776888 -0.07740889 0.10162851 0.1006839

conv3.0.bias f4 [32]
000000 39 51 07 3b de 95 c6 bd 0e 7d a9 3d 1a 7a c4 3d
       0.0020647778 -0.09696554 0.082758054 0.095936015
000010 28 ad 4a 3d a1 7b 74 bc d9 f5 ae bd 18 3e a9 3c
       0.04948154 -0.014922054 -0.085429855 0.020659491
000020 08 6f 34 3d 68 34 12 bd 14 02 0f 3d 08 5b ea 3c
       0.0440512 -0.03569451 0.03491409 0.02860786
000030 32 4e ac 3d 28 80 bb bd e4 8c 94 bc e8 ee e7 3c
       0.08413352 -0.09155303 -0.018133588 0.028312162
000040 88 4d c7 3c 4c e4 b3 3d 2c d9 bf bc b4 5f 3f 3d
       0.024328962 0.087837785 -0.023418985 0.04672213
000050 e4 98 dd bc de 31 94 3d 1a 47 c7 3b c4 0b 4c 3d
       -0.027050443 0.07236074 0.006081474 0.049815908
000060 9c 09 7a bd 1c 1a 0e 3d 80 a9 91 3c ed ed b9 3a
       -0.06104432 0.03469287 0.01778102 0.0014185287
000070 2e fc 8b 3d 6c 68 65 3d 2c 20 12 bd 64 f7 82 bc
       0.06835209 0.056007788 -0.035675213 -0.015987106

conv3.1.weight f4 [32]
000000 a9 ca 7f 3f c6 67 80 3f 59 b5 7f 3f 07 2d 81 3f
       0.9991861 1.0031669 0.9988609 1.0091866
000010 5d dc 7f 3f ab 52 80 3f 73 fa 7f 3f cb 4c 7f 3f
       0.9994562 1.0025228 0.9999153 0.9972655
000020 b1 64 7e 3f 6b 20 80 3f db 67 80 3f da ed 7e 3f
       0.9937239 1.0009893 1.0031694 0.9958168
000030 fd 88 7f 3f cd a6 7e 3f 99 be 7c 3f 4c 0b 7c 3f
       0.998184 0.9947327 0.9872833 0.9845474
000040 56 4c 7e 3f 14 68 7f 3f db 6b 80 3f 62 26 80 3f
       0.9933523 0.99768186 1.0032915 1.0011714
000050 c0 25 7f 3f b3 13 80 3f f2 07 81 3f ff a2 7f 3f
       0.99666977 1.0006012 1.008055 0.9985809
000060 d0 b9 7f 3f 7e 1e 7e 3f 20 14 7f 3f 9d 26 80 3f
       0.998929 0.9926528 0.99640083 1.0011784
000070 58 3f 81 3f 1c f3 7d 3f 48 13 80 3f c1 52 81 3f
       1.0097456 0.9919908 1.0005884 1.010338

conv3.1.bias f4 [32]
000000 b7 24 18 3b ba bb 0b 3b a7 44 ab ba 6e 10 c6 3b
       0.0023215243 0.002132161 -0.0013066725 0.006044439
000010 57 24 ee 39 fb f2 c6 3b 53 c7 1d ba 0a 85 77 3b
       0.00045421973 0.006071446 -0.00060187763 0.0037768506
000020 ba ea bd 3a 53 e5 99 3b ed 69 44 3b f6 37 57 3b
       0.001448951 0.004696527 0.0029970363 0.0032839752
000030 3a 3a 23 3c c6 1d bf 3b 25 ac 1e 39 b9 96 75 bb
       0.009962613 0.0058324067 0.00015132183 -0.003747387
000040 60 da 94 3a ea 10 8d 3b f5 1e 21 bb 04 61 62 bb
       0.0011356585 0.004304995 -0.0024585102 -0.003454269
000050 d3 a5 14 3b 2b 49 43 3a c4 90 0f 3c a8 4d c2 b9
       0.0022681847 0.00074495625 0.008762542 -0.00037060422
000060 ee 5d 4d bb cf fe 18 bb d4 4d c4 ba 69 ed 58 3a
       -0.0031336504 -0.0023345237 -0.0014976808 0.0008275123
000070 32 e6 c1 b9 cd d6 73 bb 7e ec 12 3c 25 74 30 bb
       -0.00036983337 -0.0037206889 0.008967517 -0.0026924696

conv3.1.running_mean f4 [32]
000000 f4 46 b5 3d a0 9b 92 be 39 e0 8f 3d 63 45 85 3e
       0.08851424 -0.28634357 0.07025189 0.260295
000010 c8 45 17 bd 45 54 04 bd 8d f9 17 bf dd 10 87 3c
       -0.036931783 -0.03230693 -0.5936516 0.016487533
000020 b0 e1 65 be 7b b4 ed be 6f 79 5c 3e 4a 46 b4 3e
       -0.22449374 -0.46426758 0.21530698 0.35209876
000030 ba 47 47 bc 5d 92 a1 be c4 55 6d 3e 7e 0c 49 3d
       -0.012163097 -0.3155698 0.23177248 0.04908418
000040 c2 6e a5 ba ee d4 89 3d ca 47 3d bd ef ea 4d 3d
       -0.0012621509 0.06730066 -0.04621104 0.05027288
000050 7c bc 5e bc 51 3d 35 3d 08 b0 40 be 5c 00 9f 3d
       -0.013594743 0.04424793 -0.1881715 0.077637404
000060 ff bc a4 bd c8 82 c6 be 06 c0 50 be 20 5f 07 3e
       -0.08043861 -0.38771653 -0.20385751 0.13219881
000070 b5 ec c3 3d 2e 39 89 3e d0 f5 8d 3e 42 ee 84 3e
       0.09566633 0.26801437 0.27726603 0.25963026

conv3.1.running_var f4 [32]
000000 7b 3b 12 3e 46 2f 0e 3e d3 19 e2 3e c4 3a c9 3e
       0.14280502 0.13885221 0.44160327 0.39302647
000010 9d 4d 3b 3e 47 8c 05 3e 3d de 25 3e 62 64 29 3e
       0.18291326 0.13041793 0.16198058 0.16542199
000020 90 17 08 3e 2c 1c f2 3d 00 95 2d 3e 37 12 fb 3d
       0.13290238 0.118217796 0.1695137 0.122593336
000030 cf 7e e5 3d 2e 31 28 3e a0 9b 7a 3d 5d 81 c3 3d
       0.112058274 0.1642501 0.06118357 0.095461585
000040 61 9d a0 3e b2 a3 74 3e 5b 9f 8f 3e 68 a8 c3 3e
       0.3137007 0.2389057 0.28051266 0.3821442
000050 f4 a9 86 3e 47 32 47 3e 5e 7e bd 3d ca a7 6b 3e
       0.2630154 0.19452773 0.09252618 0.23013225
000060 74 8d 1e 3e eb 2b 80 3e 18 a1 eb 3d 6a ab 5c 3e
       0.15483648 0.25033507 0.115053356 0.21549764
000070 a6 4b 15 3e 06 b9 29 3e 37 78 9d 3e fe f0 80 3e
       0.14579639 0.16574487 0.3075578 0.25183862

conv4.0.weight f4 [32, 32, 3]
000000 aa 55 01 3c 4a 8a c0 bd c7 11 a3 3d 9f 91 9a bc
       0.007893959 -0.094013765 0.07962375 -0.018868266
000010 aa 35 83 3c 66 09 2b 3d 55 9e ef 3b b7 2b a5 3a
       0.0160168 0.04175701 0.007312576 0.0012601529
000020 60 d5 a5 3d 6c bc 89 bd 8e 1c 30 3d 99 a8 1b bd
       0.08097339 -0.06725392 0.042995982 -0.038002584
000030 b3 37 87 3d 4f 3e c7 3d b0 97 7c 3d 8f 92 b5 bd
       0.06602421 0.09728681 0.061668098 -0.088658445
000040 dc b6 f4 bd 7c 29 2f 3d b0 9b 9a 3d 73 e4 9e bd
       -0.1194894 0.042764172 0.07549226 -0.07758417
000050 66 2e be 3d cc fc e2 bd de 75 df bd 59 29 15 bd
       0.092861935 -0.110833734 -0.10911153 -0.036416385
000060 9b da bf 3b 5c a7 b1 bd 9d d5 91 3d c6 72 8d 3d
       0.005854917 -0.086744994 0.071208216 0.06906657
000070 57 8c 12 3d f0 5d aa bd 74 1f 77 3c 85 2a 41 b9
       0.03577837 -0.083186984 0.015083183 -0.00018421754
000080 01 e6 dd 3d d3 56 96 3d 12 7c 85 bd 7a 2e 01 3e
       0.108348854 0.07340779 -0.06517805 0.12615386
000090 eb e4 0a be 0f c1 8b bc c6 39 43 bc 5d 10 5a bd
       -0.13563888 -0.017059831 -0.01191563 -0.05323826
0000a0 c5 87 8f bb 22 3d 80 3d a9 a7 c9 bd 19 75 1d 3d
       -0.0043801987 0.0626166 -0.09846432 0.03844175
0000b0 39 02 5c bc 1a b6 b8 bb 3a a2 3b 3d 40 0f 9f 3d
       -0.013428264 -0.0056369426 0.04580901 0.077665806
0000c0 7a 4e c5 bc fa c2 d5 3c 92 ac ac 3c 54 ba 24 3d
       -0.024085272 0.026093949 0.021078382 0.04021676
0000d0 ad 68 41 3d 5e 23 22 3c 11 e7 fe bd 1e 55 87 bd
       0.047218967 0.0098961275 -0.12446416 -0.06608032
0000e0 93 f2 b6 bc 01 55 a7 3d 94 21 85 bd b9 39 2f 3c
       -0.022332465 0.0817051 -0.06500545 0.0106949145
0000f0 3a ef 3c 3d db a4 67 3d 96 cd d1 bc cf 96 db 3b
       0.04612658 0.056553703 -0.025610726 0.0067013274
000100 73 10 f0 3c 5f 4d 81 3d 41 b6 ce bd 93 af 02 bc
       0.029304719 0.063135855 -0.10093356 -0.0079764305
000110 3a fe 98 bd dd 79 c5 bd 15 2b ad 3c c5 9c ed 3c
       -0.07470365 -0.09642384 0.021138707 0.029005418
000120 32 ce 69 3d 7b fa 41 3d cf d6 dd 3c f8 ec a5 bc
       0.05708141 0.047358017 0.027079968 -0.020254597
000130 1f cf 7e 3c a6 3e 55 3d 79 96 ed bc cf 3a 11 bd
       0.015552311 0.0520617 -0.029002415 -0.035456475
000140 d8 70 b1 bd b6 f0 0d bd 65 3c d6 3c 10 f1 9d 3d
       -0.08664101 -0.034653388 0.026151845 0.07711995
000150 72 76 a6 bd de bc 4d 3d eb 8a bd bd 55 a5 8c 3d
       -0.081280604 0.050228946 -0.09255012 0.06867472
000160 b7 46 2b bc ee 27 32 3c 48 84 ad 3c dd 35 b7 bd
       -0.010453871 0.010873778 0.02118124 -0.089458205
000170 b1 9f bf ba bf 6c 85 bb 02 58 d6 3c ab f5 06 bc
       -0.0014619735 -0.0040718014 0.026165012 -0.008237283
000180 40 e5 c4 3d b6 26 3d 3d 6a ba 9e bc 06 7a b7 bb
       0.096140385 0.046179496 -0.019375999 -0.005599263
000190 23 85 b2 3d ab 13 d1 bd 3f 24 d2 3c e0 f7 ae bd
       0.087168 -0.102088295 0.02565205 -0.08543372
0001a0 a6 fb 83 3b b3 f6 4d 3d b8 9a 16 3d 46 4d 9c 3d
       0.0040278016 0.0502841 0.036768645 0.07631926
0001b0 00 2f 74 bd 6d e8 27 bc 59 84 da bb 87 69 d3 bd
       -0.059615135 -0.010248286 -0.006668609 -0.10322862
0001c0 9e 4e 2d 3c c4 f8 ca 3d e2 63 b6 3d 37 28 93 bd
       0.010577826 0.099107295 0.0890577 -0.07185405
0001d0 00 a4 56 bd 40 d4 99 bd 51 d2 32 bd 4e 28 b6 bc
       -0.052402496 -0.075111866 -0.043657605 -0.022236016
0001e0 81 fd ab 3d 89 b2 ac bd b4 e3 8e 3d 53 da 71 3c
       0.083979614 -0.084324904 0.06977025 0.014761525
0001f0 1e 73 02 bd dc 3e c2 3d fb ca 34 bc 9a d6 e8 3c
       -0.031848066 0.09484646 -0.011034722 0.028422642
000200 77 5e 16 bc db e0 81 3d 27 67 98 bb 2e 3a c4 bd
       -0.009177796 0.06341716 -0.0046509686 -0.095814094
000210 07 fb 18 bd d3 4d f5 bc 9c 2b b5 3d cf 0b a1 3d
       -0.037348773 -0.029944336 0.088462085 0.078635804
000220 01 4a 76 3d 9c 1a 7e 3d f9 4f 3c 3c d2 65 08 3d
       0.06012917 0.062037095 0.011493676 0.03330023
000230 55 1f 4f bd dd 1b 02 bd 85 3e 8e 3d ee c0 6b 3b
       -0.05056699 -0.031764854 0.069455184 0.003597315
000240 7a 24 ee bc 08 73 a9 3d 6f f1 2e bd f9 95 d6 3d
       -0.029070128 0.082738936 -0.042710718 0.10477824
000250 c0 40 42 3d 2f 16 7c 3d 8b c3 52 bc 8d 9f 9d bd
       0.04742503 0.061544593 -0.012864004 -0.076964475
000260 42 64 07 bd f3 24 aa bd b2 bf 91 bd 35 7e d3 bd
       -0.033054598 -0.08307829 -0.07116641 -0.103268065
000270 8d d1 90 bc 78 e7 ef bc a7 f3 88 3d 35 67 b2 bd
       -0.017678047 -0.029285178 0.06687098 -0.087110914
000280 3b 4c 72 bd dc 6f 3a bd a2 eb 06 bd 6d cb d5 3d
       -0.05915473 -0.045516834 -0.03293956 0.10439191
000290 0a 61 50 3d 64 31 4b 3d 00 a6 31 bd 40 a0 6c bd
       0.050873794 0.04960765 -0.0433712 -0.057770014
0002a0 fd 98 97 3d a0 72 9c bc c9 39 45 3a 6f ac 42 bd
       0.07402227 -0.019097626 0.0007523564 -0.047527727
0002b0 87 0f 8b 3d a0 a6 0d 3d 40 a6 b3 bd 49 13 a8 bd
       0.06790071 0.034582734 -0.08771944 -0.08206803
0002c0 79 4d 4d bd e2 65 a6 bd d2 c0 e8 bd 8c 7e 3d bd
       -0.05012271 -0.08124901 -0.113649026 -0.046263263
0002d0 27 67 6e bc ef fe bb 3d 9d 33 49 3d ea 5a b7 3d
       -0.014550961 0.09179484 0.049121488 0.08952887
0002e0 1a eb 44 ba 42 70 f0 3c 9b 4f b2 3d b3 da 9e bb
       -0.00075118395 0.029350404 0.0870659 -0.0048478483
0002f0 f7 af 28 3d 8f 52 96 bd 2c a2 e4 bc 64 2e ca bd
       0.04118344 -0.073399656 -0.02790936 -0.098721296
000300 4e 62 00 3c c4 2f 5c bb d8 7c cb 3d c9 ed c3 3b
       0.007835938 -0.0033597806 0.099359214 0.005979274
000310 66 53 62 3d 00 61 cd bd 79 9f 45 bd 61 2a 2d bd
       0.055255316 -0.10028267 -0.048247788 -0.042276744
000320 05 9e 33 3d 72 1b a6 bd 8f 30 bb bc 55 1f 1d 3d
       0.04385187 -0.081107035 -0.022850303 0.03835996
000330 8f e9 80 bd c5 7b 87 3d c7 6f 7d 3d 82 ed 85 3b
       -0.06294548 0.06615404 0.061874177 0.004087151
000340 cb b4 39 bd 9e 4f 8f 3d 44 b3 a1 bd c4 b9 9b 3d
       -0.045338433 0.06997608 -0.0789552 0.07603791
000350 6a 44 9c bd cc fd 9d 3d 9c 4d 33 bd e7 a6 bf 3d
       -0.076302364 0.077144235 -0.043775186 0.09358006
000360 76 4a b2 3d 6c d8 b6 3d dc 46 71 3d c4 91 48 bb
       0.087056085 0.08927998 0.058905467 -0.0030604461
000370 5d c4 95 bd d7 96 ba bd 16 7b 9a 3c db e9 c2 bc
       -0.07312844 -0.09110802 0.01885752 -0.023793152
000380 10 7c 08 bd ab bb 9d 3d 1b 1d d6 3d e3 4d 5b 3d
       -0.03332144 0.077018104 0.1045477 0.053541075
000390 b4 c9 76 3d fb 7e 1b bb 73 ed cc 3d 6a 8c 7f bd
       0.060250953 -0.002372681 0.10006227 -0.06238977
0003a0 18 e0 33 3c 0b bc 6f bd e0 63 13 bc 3e 12 8a 3d
       0.010978721 -0.05852894 -0.00899598 0.06741761
0003b0 e4 02 05 bd 9d 4f 7b bc 86 6b ed bc e7 31 8c 3d
       -0.03247346 -0.0153388055 -0.028981935 0.068454556
0003c0 a8 c1 3e bb da 06 7a 3c b3 ab 00 3c 59 89 0c bd
       -0.0029107127 0.015260423 0.007853436 -0.034310672
0003d0 c0 b6 9c 3d bf 41 c3 bc d2 39 43 3d 01 fe a7 3d
       0.07652044 -0.023835061 0.047662564 0.08202744
0003e0 51 3b 08 bd f6 b6 17 3d 16 61 7e bc 46 c9 1f bd
       -0.033259694 0.03703972 -0.015526077 -0.03901031
0003f0 16 b5 81 ba b0 ef aa bc 5b 24 44 bb 53 53 91 3d
       -0.0009895887 -0.020866245 -0.0029928896 0.07095971

conv4.0.bias f4 [32]
000000 ab d2 ce bd 97 94 bb bd 88 ce 43 3d 4c 8a 9c bc
       -0.100987755 -0.09159201 0.047804385 -0.019108914
000010 28 55 1c 3c 3b 0d cf bd cf 20 4a bd 0c 06 84 3d
       0.009541787 -0.101099454 -0.049347695 0.06446466
000020 f9 b5 6f bd 18 88 39 bd e4 6d 28 3d 1a 4f 7e bd
       -0.058523152 -0.045295805 0.041120425 -0.062087156
000030 0c 93 00 3d 2c c3 ca 3d f4 86 20 3d b8 6e d0 3c
       0.031390235 0.09900507 0.0391912 0.02544342
000040 60 f3 9e 3d 70 cf 5e 3d f0 40 0d bc 76 78 7f bd
       0.07761264 0.054397047 -0.008621439 -0.06237074
000050 80 c5 d9 3b fc f3 6f 3d 32 0f b9 bd e4 ed e4 39
       0.0066458583 0.05858229 -0.090361014 0.0004366479
000060 a9 97 b3 bd 28 df 7b 3c bc 97 c1 bc 0a e0 ae bd
       -0.08769161 0.015373029 -0.023631923 -0.08538826
000070 d8 33 00 3d e6 7d bf 3d 06 08 c7 bd 5c 1e 8f bd
       0.031299442 0.09350185 -0.09718327 -0.069882125

conv4.1.weight f4 [32]
000000 a6 07 80 3f 50 a3 81 3f 1f 98 81 3f da 66 7e 3f
       1.0002334 1.0127964 1.0124549 0.9937569
000010 80 af 80 3f 2c 3f 80 3f 2f f1 7d 3f b4 76 7d 3f
       1.0053558 1.0019279 0.9919614 0.9900925
000020 bb 6f 7d 3f df 0f 81 3f 29 d8 7c 3f c3 8f 7f 3f
       0.9899861 1.0082968 0.98767334 0.9982874
000030 57 e0 7c 3f 40 15 80 3f 8e c7 7f 3f c6 c9 80 3f
       0.98779815 1.0006485 0.9991387 1.0061576
000040 52 62 7f 3f 79 d5 7f 3f b6 e1 81 3f f2 00 80 3f
       0.997594 0.9993511 1.0147007 1.0000288
000050 be 6a 7f 3f c2 22 7f 3f c5 7c 80 3f 24 15 80 3f
       0.9977225 0.9966241 1.0038077 1.0006452
000060 f9 47 81 3f a6 42 7f 3f fb 74 7e 3f 94 b9 7f 3f
       1.0100089 0.9971107 0.9939725 0.99892545
000070 e1 52 7e 3f 8e 3a 81 3f a3 65 80 3f b9 56 80 3f
       0.99345213 1.0095994 1.0031017 1.0026466

conv4.1.bias f4 [32]
000000 c6 25 5d bb 8b 20 12 bb 6e 4d ae 3b c6 2f af 3b
       -0.0033744439 -0.002229723 0.005319289 0.005346271
000010 70 b7 33 3c 83 8a b9 3b 77 6c de 3a 8a 79 83 bb
       0.010969028 0.005662264 0.0016969581 -0.0040122913
000020 81 b9 c7 3b 88 68 a0 b9 e3 66 d4 3b 0b 43 9d 3b
       0.006095112 -0.0003059546 0.0064819916 0.004799252
000030 fa de a9 bb 9a 44 2b bb 8c e3 65 39 ee 79 91 3a
       -0.0051840516 -0.002613342 0.0002192391 0.001109896
000040 37 59 84 3a ec 9a fb 3a 66 ad ad bb a3 38 2c 3a
       0.0010097389 0.0019195951 -0.0053002117 0.0006569719
000050 ed 32 c1 3b ca 4e 73 3b 6c 11 21 3c 78 37 d8 3a
       0.0058959634 0.003712582 0.009830814 0.0016496023
000060 ad 8e 15 3a 2f ff 02 ba 3a 8e 92 b6 90 a7 04 3c
       0.0005705159 -0.0004997132 -4.3676964e-06 0.008096591
000070 fc 35 f6 ba 56 22 38 3a 3f 72 7a b9 9e b7 a2 ba
       -0.0018784399 0.00070241594 -0.00023884418 -0.0012414341

conv4.1.running_mean f4 [32]
000000 01 43 74 be f5 4f 45 be 7e 70 67 3e 12 40 ba 3e
       -0.23853685 -0.19268782 0.22601506 0.36377007
000010 0b a5 88 3e fc f9 1d 3f 86 f2 a6 be 91 05 1e 3e
       0.26688418 0.6170957 -0.32606906 0.15431811
000020 7c 5a b9 3e 27 ab 99 be 41 ba bd bd ed b0 55 bf
       0.36201847 -0.3001339 -0.09264041 -0.8347309
000030 b1 11 b2 be c7 69 94 be 26 35 ff 3e b6 e2 c0 3e
       -0.34779122 -0.28986952 0.49845237 0.37672967
000040 6f c8 fd be 17 04 b8 be a3 2d bc be 86 b2 5c be
       -0.4956698 -0.3594062 -0.36753568 -0.21552476
000050 31 9d 83 be 16 bc 27 3f df 7a 78 be 17 20 cf be
       -0.25705865 0.6552137 -0.24265622 -0.4045417
000060 14 4c 3d 3e 68 f4 c7 be 9f eb 3e bf 45 ba 0c 3f
       0.18486053 -0.39053655 -0.7457828 0.54971725
000070 cb d7 08 3f ad 34 49 bc 8f de 10 bf b9 1c 38 bf
       0.53454274 -0.012280625 -0.565896 -0.7191883

conv4.1.running_var f4 [32]
000000 1e e9 2a 3f c4 6e 1b 3f 8c a3 71 3f 6a 08 08 3f
       0.6676196 0.6071589 0.9439018 0.5313784
000010 23 81 17 3f 87 b7 af 3f 50 1c 15 3f 36 60 00 3f
       0.5918142 1.3727883 0.58246326 0.50146806
000020 63 c9 64 3f ea 17 6d 3f 9d fa 1a 3f 65 f9 3c 3f
       0.8936979 0.92614615 0.60538656 0.73818046
000030 09 5d fa 3e b0 cf 87 3f 7b bd 20 3f a3 00 6f 3f
       0.48899105 1.0610256 0.62789124 0.93360347
000040 a8 56 6c 3f 27 3d 3a 3f 4a 4a 51 3f fc fe 65 3f
       0.92319727 0.7274956 0.8175398 0.898422
000050 9d e3 25 3f 2c 3f 59 3f 61 7f 74 3f 4d 00 16 3f
       0.64800435 0.8486202 0.95506865 0.5859421
000060 08 09 14 3f fd 9d 28 3f c1 b4 67 3f 28 23 6f 3f
       0.5782628 0.6586607 0.90510184 0.9341302
000070 6a cc 6a 3f 8f cd 40 3f 3a ea 3e 3f 5d 06 18 3f
       0.9171816 0.7531366 0.7457615 0.5938471

conv5.0.weight f4 [32, 32, 3]
000000 8c f6 c3 3c 33 d5 92 3d 4b 75 6c 3d c6 94 b7 bd
       0.023921274 0.07169571 0.057729047 -0.08963923
000010 14 b7 2d 3d 52 a8 7f bd 15 98 77 bd 2e 1e bb bd
       0.042410925 -0.062416382 -0.06044777 -0.09136616
000020 de 0c 96 bd 85 87 a8 3d 31 19 8f 3b cb 0c 51 bd
       -0.07326673 0.08228973 0.0043670167 -0.05103759
000030 07 07 5c bd c3 42 56 bd 89 f3 68 3d 46 d3 0e 3d
       -0.05371764 -0.052309763 0.05687288 0.034869455
000040 9b b5 2d 3d c8 7d 5b 3d dc a6 12 3d bc 62 75 bc
       0.04240952 0.05358675 0.03580366 -0.014977153
000050 bf 6a c6 bd 41 fe 8c bd 20 86 d0 3c 0e 92 9d bc
       -0.09688329 -0.068844326 0.02545458 -0.019234683
000060 31 31 9e 3d 6a 2d da 3d e8 c2 47 bc 36 12 03 3d
       0.07724226 0.10653193 -0.012192465 0.03199979
000070 c4 4c 70 bc 01 df 51 3d 29 b8 ee bc 4e e9 a7 3c
       -0.01466674 0.051238064 -0.029140549 0.02049699
000080 63 b1 d9 3a d2 86 3e 3d 19 36 2f 3b b0 56 f5 bb
       0.0016608651 0.046515293 0.0026735126 -0.0074871406
000090 bb 6b 7b 3a 94 03 cc bd 41 7e 5c bc cc fe ca bc
       0.0009590943 -0.0996162 -0.013457836 -0.0247797
0000a0 af 7c d6 bd dd 1b cc bb 49 e9 71 bd ac 93 da 3c
       -0.10473 -0.0062289075 -0.05906037 0.026681744
0000b0 ef 0e ba bd 5a cc ba bd c8 8e 9e 3d 1f a0 dc 3d
       -0.090848796 -0.09121008 0.07742077 0.10772728
0000c0 45 84 fb bc cc 00 5e bd f4 e1 b5 bd e6 90 44 3d
       -0.03070272 -0.05419998 -0.08880988 0.04798975
0000d0 95 3d 92 bd 37 ff 1a 3d 89 9d 0a 3d f5 1a 57 3a
       -0.07140652 0.037841048 0.033841643 0.0008205616
0000e0 34 06 cd bd b4 37 a5 bd 4a 99 8f bd 79 5c d2 bd
       -0.10010949 -0.08067265 -0.070116594 -0.10271544
0000f0 ac 3b 51 3d f0 8b 06 3d 1a 0e c0 bc 55 5c a4 bd
       0.0510823 0.0328483 -0.023444224 -0.080254234
000100 8c 5c 91 bd 0c 7c 1c bc 3c 6f ad bd 19 42 c1 bd
       -0.0709773 -0.009551059 -0.08468482 -0.09436435
000110 f1 5d bd 3b 2e d7 aa 3d e0 e4 c9 3d c1 85 97 bd
       0.005779021 0.083418235 0.098581076 -0.073985584
000120 d5 dd c7 bc 71 26 b1 3d 27 92 04 3d 80 63 c6 3c
       -0.02439777 0.0864991 0.032365944 0.024217367
000130 1e ca b2 3d 9e a6 76 3d 34 97 cb 3d df 29 d8 bd
       0.08729957 0.060217492 0.09940949 -0.10554861
000140 16 9b c7 bd 0b 01 2d 3c 38 6c 4c bd 9c 22 8f 3d
       -0.09746377 0.010559331 -0.049907893 0.06989023
000150 af c2 5a bd 13 3a eb 3b e3 d8 95 3c 90 52 96 3d
       -0.05340832 0.007178554 0.018291896 0.07339966
000160 f5 6e ad 3d c2 c2 16 3d e1 fa dd bc f1 f8 38 3d
       0.08468429 0.03680683 -0.027097167 0.045159284
000170 68 3d b3 3c 96 b1 83 bd 9a 90 74 bc b4 52 94 3c
       0.021879867 -0.06430356 -0.014927054 0.018105842
000180 65 88 5e bd c7 8a a0 3d 49 59 06 3d bd 2e 9e bd
       -0.054329295 0.0783897 0.032799993 -0.07723758
000190 ee 75 31 bd bb 70 bf bd cc a2 8f bb 8b 63 89 3d
       -0.043325357 -0.093476735 -0.0043834206 0.067084394
0001a0 64 92 07 bd 6e 92 79 bc 34 ea 21 bd 12 ee eb bb
       -0.033098593 -0.015232665 -0.039529994 -0.007200011
0001b0 fe 92 b0 3c a7 60 a2 3a cd c1 89 bc 91 7d 31 3d
       0.021554466 0.0012388424 -0.016816044 0.04333264
0001c0 fa a0 a6 bd 8c f7 5b 3d 9a 83 06 bd 6e 17 a1 bd
       -0.081361726 0.053702876 -0.03284035 -0.07865797
0001d0 ff 69 0e bc aa 78 56 3d 23 d3 06 bd a9 9b 7f 3d
       -0.008692264 0.052361168 -0.0329162 0.06240431
0001e0 d9 52 88 3d 33 bb b4 bd e2 cb 94 bd 17 e0 81 bd
       0.06656427 -0.08824768 -0.0726545 -0.0634157
0001f0 ef 87 a7 3d 55 90 6c 3d 2c 5e 9a 3d ea f2 b4 bd
       0.08180224 0.057754833 0.07537493 -0.08835395
000200 17 73 89 3d f4 ab 78 bd c8 a2 84 bc 4a 5d bf 3d
       0.06711405 -0.060710862 -0.016190901 0.09343965
000210 0e 60 04 bd 3e 60 ee bd 66 1b ed bc 6f aa d4 3c
       -0.032318167 -0.116394505 -0.028943729 0.025960175
000220 08 3b 79 3c b0 95 40 bd 02 be ac bd 75 ec 31 bd
       0.015211828 -0.047017753 -0.084346786 -0.043438394
000230 d4 46 6b 3d ba 7d 1b 3d 98 01 d9 3d bc 73 aa 3d
       0.057440594 0.0379617 0.10596007 0.08322856
000240 38 85 7a bc c7 6c 9b bd 67 de 7f bd 37 63 8e bd
       -0.015290551 -0.07589107 -0.06246796 -0.069525175
000250 89 56 d7 bc c3 7a 9e bd e4 d8 2a bd f1 ec cc 3d
       -0.02628638 -0.07738259 -0.04171075 0.100061305
000260 78 14 94 3d b4 94 d1 bd 0b fa 46 bd bd 51 9a 3d
       0.072304666 -0.10233441 -0.048578303 0.075351216
000270 c2 ad 9a 3d a7 7b fe 3b 6e 3d c2 3d be fb 28 bc
       0.07552673 0.0077662054 0.09484373 -0.010313926
000280 a4 4c 19 bd 45 6b 75 3d 17 d4 5c bc 24 9e dd 3d
       -0.037426606 0.059916753 -0.0134783005 0.108211786
000290 77 2d 2c bc 41 b7 a9 bd 1e 3a f1 bc a9 a5 12 bd
       -0.010508887 -0.08286906 -0.029446658 -0.035802517
0002a0 d6 6f 3c bd da 7a 42 3c 86 b6 d3 bd ac 2e 2f bd
       -0.046005093 0.01187011 -0.10337548 -0.04276912
0002b0 fa 21 ad bd c7 66 7e 3d d8 ce a3 bb a7 50 76 3d
       -0.08453746 0.062109735 -0.004999023 0.06013551
0002c0 a4 c4 8d 3d 59 f9 1a 3d 28 39 10 3d 79 b9 7f 3d
       0.06922272 0.037835453 0.03521076 0.06243274
0002d0 e5 12 6a bd 82 ea c8 3c 06 f8 65 3d a6 63 83 bd
       -0.057146925 0.024525885 0.056144737 -0.06415491
0002e0 be ec b1 bd 54 d4 9f bd 99 97 82 3d 91 9f 84 3d
       -0.08687733 -0.0780417 0.06376571 0.064757474
0002f0 c0 40 40 3d 44 cd f7 bd 40 77 c4 bd e8 9d 7b 3d
       0.04693675 -0.12099698 -0.09593058 0.061429888
000300 08 9d 9d 3d e0 1d bf bd 1a 31 86 bd ce 57 b1 bd
       0.07695967 -0.0933187 -0.06552334 -0.086593255
000310 10 44 bb 3d 4d 30 00 3d 93 76 27 bd e1 d2 1e bd
       0.09143841 0.031296063 -0.040884566 -0.03877533
000320 5d ce a2 bd c3 da fb bc 5c 8b 38 3d da 40 98 bd
       -0.07949517 -0.030743962 0.04505478 -0.074342445
000330 f5 83 75 bd 7e 7b ab 3d 50 32 9c bd ce bc 00 bd
       -0.059940297 0.08373164 -0.07626784 -0.03143006
000340 a4 51 27 bd e8 32 70 bd 58 a5 43 3d 25 97 bc 3d
       -0.040849343 -0.058642298 0.047765106 0.09208516
000350 6e d5 8e 3d 5c 37 d8 bc bb 64 33 3d 1d ba 0a bd
       0.06974302 -0.026393585 0.043797236 -0.033868898
000360 ee d0 01 bd 80 db 76 bd 97 95 92 3d 2d 15 d5 bd
       -0.03169339 -0.060267925 0.07157438 -0.104044296
000370 1f 17 7a 3c 37 55 7c bd 48 0d 0f 3d d0 49 97 bd
       0.015264302 -0.061604705 0.034924775 -0.073871255
000380 ef 2a 74 bd 3d 7f c7 bd 9c 97 2f ba 1d e8 cb bc
       -0.059611257 -0.09741066 -0.0006698312 -0.024890954
000390 b2 9a 22 3d 9d d6 a6 bd 44 c4 1e bd 2a c6 60 3d
       0.03969831 -0.08146403 -0.038761392 0.054876484
0003a0 61 8a 7b 3d 7d be 41 3d 37 59 1f b8 4e 05 b5 bd
       0.061411265 0.047300804 -3.7991642e-05 -0.088389024
0003b0 f7 d0 4b 3d 3c 4e 43 3c 8a 78 70 bd 36 44 51 bd
       0.04975983 0.011920508 -0.058708705 -0.05109044
0003c0 bc cf ac 3d 57 cc d9 bb da 9b 23 3d 7b e9 b5 3c
       0.0843806 -0.0066466737 0.039943554 0.022206059
0003d0 69 86 71 bc b4 e7 2c bd b3 0a 2c bd 54 83 68 bd
       -0.014741519 -0.042213157 -0.04200239 -0.05676587
0003e0 8b eb 49 bd 8f 2c 5c bd 4c 37 a6 3c 51 11 ad bd
       -0.049296897 -0.053753432 0.02029004 -0.084505685
0003f0 e5 f3 6b 3d b1 99 02 bd 7d 2b 8d bc 9d 2f 6b 3c
       0.057605643 -0.031884853 -0.01723265 0.014354614

conv5.0.bias f4 [32]
000000 18 bd 0d bd 46 a4 a1 bd a8 d2 7b 3d bd dd a3 bd
       -0.034604162 -0.07892661 0.061480194 -0.080012776
000010 24 69 16 bd 22 d8 99 bd 6f 76 4c bd 68 08 14 3d
       -0.036721364 -0.07511927 -0.049917635 0.03614083
000020 7c 6f 1a 3d f4 09 c1 bd f8 f2 17 bc 40 c7 b7 3d
       0.037703976 -0.094257265 -0.009274237 0.08973551
000030 66 24 b5 3d 5b 36 54 bd 9e f3 87 bd b0 12 9e bb
       0.08844833 -0.05180965 -0.06638263 -0.004824005
000040 5c b0 08 3d 54 55 8c 3d fc e5 1e 3d 18 be b8 3c
       0.033371314 0.068522125 0.03879355 0.022551581
000050 3a 20 84 bd fc 9d a9 3d cc 40 a0 bc 21 e3 5a bd
       -0.06451459 0.08282086 -0.019562148 -0.053439263
000060 a0 1f 36 3d 80 02 40 bd 9c d3 0c 3d 00 85 e8 3a
       0.044463754 -0.046877384 0.034381494 0.0017739832
000070 22 24 8a 3d f2 11 97 3d 80 60 82 3c df 82 76 bd
       0.06745173 0.0737647 0.015915155 -0.060183402

conv5.1.weight f4 [32]
000000 eb f2 7e 3f 9b 5d 7f 3f 36 29 7f 3f 54 32 7d 3f
       0.99589413 0.99752206 0.9967226 0.9890492
000010 d3 ad 80 3f ff d7 7f 3f 26 1d 80 3f 9e d4 80 3f
       1.0053047 0.9993896 1.0008895 1.0064886
000020 10 9b 7f 3f 58 90 7e 3f e7 d4 7e 3f ec 99 81 3f
       0.9984598 0.99439 0.99543613 1.0125098
000030 e2 cd 7e 3f 41 1a 7f 3f fd 87 80 3f c1 da 80 3f
       0.995329 0.99649435 1.00415 1.0066758
000040 82 2f 81 3f 2c 17 80 3f e7 5c 80 3f a3 8c 7e 3f
       1.0092623 1.0007071 1.0028352 0.99433345
000050 15 a9 7f 3f 49 b3 7f 3f 3e 11 7d 3f 0d 05 7f 3f
       0.99867374 0.9988294 0.98854434 0.9961708
000060 ab 85 81 3f 04 95 80 3f 64 8b 7f 3f 29 84 80 3f
       1.0118917 1.0045476 0.9982207 1.0040332
000070 2a 11 7f 3f da 18 7f 3f b3 50 80 3f fa 34 80 3f
       0.99635565 0.99647295 1.0024627 1.0016167
